…
model.add(MaxPooling2D(pool_size=(2,2)))
model.add(Conv2D(32,(3,3),activation='relu'))
model.add(MaxPooling2D(pool_size=(2,2)))
model.add(Flatten())
model.add(Dense(units=128,activation='relu'))
model.add(Dense(units=4,activation='softmax'))
model.compile(loss='categorical_crossentropy',optimizer='adam',metrics=['accuracy'])
model.summary()
Model: "sequential_1"
_________________________________________________________________
 Layer (type)                Output Shape              Param #   
=================================================================
 conv2d_2 (Conv2D)           (None, 62, 62, 32)        896       
                                                                 
 max_pooling2d_2 (MaxPooling  (None, 31, 31, 32)       0         
 2D)                                                             
                                                                 
 conv2d_3 (Conv2D)           (None, 29, 29, 32)        9248      
                                                                 
 max_pooling2d_3 (MaxPooling  (None, 14, 14, 32)       0         
 2D)                                                             
                                                                 
 flatten_1 (Flatten)         (None, 6272)              0         
                                                                 
 dense_2 (Dense)             (None, 128)               802944    
                                                                 
 dense_3 (Dense)             (None, 4)                 516       
                                                                 
=================================================================
Total params: 813,604
Trainable params: 813,604
Non-trainable params: 0
_________________________________________________________________
model.fit_generator(generator=x_train,steps_per_epoch=len(x_train),validation_data=x_test,validation_steps=len(x_test),epochs=20)
…
